┏━━━━━━━━━━━━━━━━━━━━━━━━━━━━━━━━━┳━━━━━━━━━━━━━━━━━━━━━━━━┳━━━━━━━━━━━━━━━┓
┃ Layer (type)                    ┃ Output Shape           ┃       Param # ┃
┡━━━━━━━━━━━━━━━━━━━━━━━━━━━━━━━━━╇━━━━━━━━━━━━━━━━━━━━━━━━╇━━━━━━━━━━━━━━━┩
│ input_layer_22 (InputLayer)     │ (None, 384)            │             0 │
├─────────────────────────────────┼────────────────────────┼───────────────┤
│ dense_69 (Dense)                │ (None, 200)            │        77,000 │
├─────────────────────────────────┼────────────────────────┼───────────────┤
│ dense_70 (Dense)                │ (None, 150)            │        30,150 │
├─────────────────────────────────┼────────────────────────┼───────────────┤
│ dense_71 (Dense)                │ (None, 100)            │        15,100 │
├─────────────────────────────────┼────────────────────────┼───────────────┤
│ dense_72 (Dense)                │ (None, 4)              │           404 │
└─────────────────────────────────┴────────────────────────┴───────────────┘

LR: 1e-3
batch size: 16

Result: 99% train accuracy, 90% validation accuracy (overfitting)

The effect of batch size is large on overfitting: smaller batch size means more overfitting.

-------------------------------------------------------------------

┏━━━━━━━━━━━━━━━━━━━━━━━━━━━━━━━━━┳━━━━━━━━━━━━━━━━━━━━━━━━┳━━━━━━━━━━━━━━━┓
┃ Layer (type)                    ┃ Output Shape           ┃       Param # ┃
┡━━━━━━━━━━━━━━━━━━━━━━━━━━━━━━━━━╇━━━━━━━━━━━━━━━━━━━━━━━━╇━━━━━━━━━━━━━━━┩
│ input_layer_29 (InputLayer)     │ (None, 384)            │             0 │
├─────────────────────────────────┼────────────────────────┼───────────────┤
│ dense_97 (Dense)                │ (None, 200)            │        77,000 │
├─────────────────────────────────┼────────────────────────┼───────────────┤
│ dropout_22 (Dropout)            │ (None, 200)            │             0 │
├─────────────────────────────────┼────────────────────────┼───────────────┤
│ dense_98 (Dense)                │ (None, 100)            │        20,100 │
├─────────────────────────────────┼────────────────────────┼───────────────┤
│ dropout_23 (Dropout)            │ (None, 100)            │             0 │
├─────────────────────────────────┼────────────────────────┼───────────────┤
│ dense_99 (Dense)                │ (None, 50)             │         5,050 │
├─────────────────────────────────┼────────────────────────┼───────────────┤
│ dropout_24 (Dropout)            │ (None, 50)             │             0 │
├─────────────────────────────────┼────────────────────────┼───────────────┤
│ dense_100 (Dense)               │ (None, 4)              │           204 │
└─────────────────────────────────┴────────────────────────┴───────────────┘

LR: 1e-4
batch size: 64

Result: 94% train accuracy, 91% validation accuracy (minor overfitting)

You didn't have dropout between input and first hidden layer, which is 
one of the most effective dropouts.

-------------------------------------------------------------------

┏━━━━━━━━━━━━━━━━━━━━━━━━━━━━━━━━━┳━━━━━━━━━━━━━━━━━━━━━━━━┳━━━━━━━━━━━━━━━┓
┃ Layer (type)                    ┃ Output Shape           ┃       Param # ┃
┡━━━━━━━━━━━━━━━━━━━━━━━━━━━━━━━━━╇━━━━━━━━━━━━━━━━━━━━━━━━╇━━━━━━━━━━━━━━━┩
│ input_layer_42 (InputLayer)     │ (None, 384)            │             0 │
├─────────────────────────────────┼────────────────────────┼───────────────┤
│ dropout_71 (Dropout)            │ (None, 384)            │             0 │
├─────────────────────────────────┼────────────────────────┼───────────────┤
│ dense_153 (Dense)               │ (None, 200)            │        77,000 │
├─────────────────────────────────┼────────────────────────┼───────────────┤
│ dropout_72 (Dropout)            │ (None, 200)            │             0 │
├─────────────────────────────────┼────────────────────────┼───────────────┤
│ dense_154 (Dense)               │ (None, 150)            │        30,150 │
├─────────────────────────────────┼────────────────────────┼───────────────┤
│ dropout_73 (Dropout)            │ (None, 150)            │             0 │
├─────────────────────────────────┼────────────────────────┼───────────────┤
│ dense_155 (Dense)               │ (None, 100)            │        15,100 │
├─────────────────────────────────┼────────────────────────┼───────────────┤
│ dense_156 (Dense)               │ (None, 4)              │           404 │
└─────────────────────────────────┴────────────────────────┴───────────────┘

LR: 1e-3
Batch: 16

Simultaneously overfitting (train acc > valid acc) and underfitting (train acc < 95%).

Try the classic Word2Vec + CNN arch instead.

---

Without any regularization, we can get 95% accuracy on test set, but validation accuracy has been stabilized for a while at 91%.

---

This model is expressive enough:
…
